{"config": {"name": "sequential_1", "layers": [{"config": {"go_backwards": false, "batch_input_shape": [null, 24, 1], "name": "lstm_1", "unit_forget_bias": true, "recurrent_constraint": null, "recurrent_regularizer": null, "bias_regularizer": null, "stateful": false, "bias_initializer": {"config": {}, "class_name": "Zeros"}, "dtype": "float32", "recurrent_activation": "hard_sigmoid", "activation": "tanh", "recurrent_dropout": 0.0, "dropout": 0.0, "units": 128, "return_sequences": true, "bias_constraint": null, "use_bias": true, "unroll": false, "activity_regularizer": null, "kernel_initializer": {"config": {"scale": 1.0, "distribution": "uniform", "seed": null, "mode": "fan_avg"}, "class_name": "VarianceScaling"}, "return_state": false, "implementation": 1, "kernel_regularizer": null, "trainable": true, "kernel_constraint": null, "recurrent_initializer": {"config": {"gain": 1.0, "seed": null}, "class_name": "Orthogonal"}}, "class_name": "LSTM"}, {"config": {"noise_shape": null, "name": "dropout_1", "trainable": true, "rate": 0.2, "seed": null}, "class_name": "Dropout"}, {"config": {"go_backwards": false, "unit_forget_bias": true, "name": "lstm_2", "recurrent_constraint": null, "recurrent_regularizer": null, "bias_regularizer": null, "stateful": false, "bias_initializer": {"config": {}, "class_name": "Zeros"}, "recurrent_activation": "hard_sigmoid", "activation": "tanh", "recurrent_dropout": 0.0, "dropout": 0.0, "units": 50, "return_sequences": true, "bias_constraint": null, "use_bias": true, "unroll": false, "activity_regularizer": null, "kernel_initializer": {"config": {"scale": 1.0, "distribution": "uniform", "seed": null, "mode": "fan_avg"}, "class_name": "VarianceScaling"}, "return_state": false, "implementation": 1, "kernel_regularizer": null, "trainable": true, "kernel_constraint": null, "recurrent_initializer": {"config": {"gain": 1.0, "seed": null}, "class_name": "Orthogonal"}}, "class_name": "LSTM"}, {"config": {"noise_shape": null, "name": "dropout_2", "trainable": true, "rate": 0.2, "seed": null}, "class_name": "Dropout"}, {"config": {"go_backwards": false, "unit_forget_bias": true, "name": "lstm_3", "recurrent_constraint": null, "recurrent_regularizer": null, "bias_regularizer": null, "stateful": false, "bias_initializer": {"config": {}, "class_name": "Zeros"}, "recurrent_activation": "hard_sigmoid", "activation": "tanh", "recurrent_dropout": 0.0, "dropout": 0.0, "units": 50, "return_sequences": true, "bias_constraint": null, "use_bias": true, "unroll": false, "activity_regularizer": null, "kernel_initializer": {"config": {"scale": 1.0, "distribution": "uniform", "seed": null, "mode": "fan_avg"}, "class_name": "VarianceScaling"}, "return_state": false, "implementation": 1, "kernel_regularizer": null, "trainable": true, "kernel_constraint": null, "recurrent_initializer": {"config": {"gain": 1.0, "seed": null}, "class_name": "Orthogonal"}}, "class_name": "LSTM"}, {"config": {"noise_shape": null, "name": "dropout_3", "trainable": true, "rate": 0.2, "seed": null}, "class_name": "Dropout"}, {"config": {"go_backwards": false, "unit_forget_bias": true, "name": "lstm_4", "recurrent_constraint": null, "recurrent_regularizer": null, "bias_regularizer": null, "stateful": false, "bias_initializer": {"config": {}, "class_name": "Zeros"}, "recurrent_activation": "hard_sigmoid", "activation": "tanh", "recurrent_dropout": 0.0, "dropout": 0.0, "units": 50, "return_sequences": true, "bias_constraint": null, "use_bias": true, "unroll": false, "activity_regularizer": null, "kernel_initializer": {"config": {"scale": 1.0, "distribution": "uniform", "seed": null, "mode": "fan_avg"}, "class_name": "VarianceScaling"}, "return_state": false, "implementation": 1, "kernel_regularizer": null, "trainable": true, "kernel_constraint": null, "recurrent_initializer": {"config": {"gain": 1.0, "seed": null}, "class_name": "Orthogonal"}}, "class_name": "LSTM"}, {"config": {"noise_shape": null, "name": "dropout_4", "trainable": true, "rate": 0.2, "seed": null}, "class_name": "Dropout"}, {"config": {"go_backwards": false, "unit_forget_bias": true, "name": "lstm_5", "recurrent_constraint": null, "recurrent_regularizer": null, "bias_regularizer": null, "stateful": false, "bias_initializer": {"config": {}, "class_name": "Zeros"}, "recurrent_activation": "hard_sigmoid", "activation": "tanh", "recurrent_dropout": 0.0, "dropout": 0.0, "units": 50, "return_sequences": true, "bias_constraint": null, "use_bias": true, "unroll": false, "activity_regularizer": null, "kernel_initializer": {"config": {"scale": 1.0, "distribution": "uniform", "seed": null, "mode": "fan_avg"}, "class_name": "VarianceScaling"}, "return_state": false, "implementation": 1, "kernel_regularizer": null, "trainable": true, "kernel_constraint": null, "recurrent_initializer": {"config": {"gain": 1.0, "seed": null}, "class_name": "Orthogonal"}}, "class_name": "LSTM"}, {"config": {"noise_shape": null, "name": "dropout_5", "trainable": true, "rate": 0.2, "seed": null}, "class_name": "Dropout"}, {"config": {"go_backwards": false, "unit_forget_bias": true, "name": "lstm_6", "recurrent_constraint": null, "recurrent_regularizer": null, "bias_regularizer": null, "stateful": false, "bias_initializer": {"config": {}, "class_name": "Zeros"}, "recurrent_activation": "hard_sigmoid", "activation": "tanh", "recurrent_dropout": 0.0, "dropout": 0.0, "units": 50, "return_sequences": true, "bias_constraint": null, "use_bias": true, "unroll": false, "activity_regularizer": null, "kernel_initializer": {"config": {"scale": 1.0, "distribution": "uniform", "seed": null, "mode": "fan_avg"}, "class_name": "VarianceScaling"}, "return_state": false, "implementation": 1, "kernel_regularizer": null, "trainable": true, "kernel_constraint": null, "recurrent_initializer": {"config": {"gain": 1.0, "seed": null}, "class_name": "Orthogonal"}}, "class_name": "LSTM"}, {"config": {"noise_shape": null, "name": "dropout_6", "trainable": true, "rate": 0.2, "seed": null}, "class_name": "Dropout"}, {"config": {"go_backwards": false, "unit_forget_bias": true, "name": "lstm_7", "recurrent_constraint": null, "recurrent_regularizer": null, "bias_regularizer": null, "stateful": false, "bias_initializer": {"config": {}, "class_name": "Zeros"}, "recurrent_activation": "hard_sigmoid", "activation": "tanh", "recurrent_dropout": 0.0, "dropout": 0.0, "units": 50, "return_sequences": true, "bias_constraint": null, "use_bias": true, "unroll": false, "activity_regularizer": null, "kernel_initializer": {"config": {"scale": 1.0, "distribution": "uniform", "seed": null, "mode": "fan_avg"}, "class_name": "VarianceScaling"}, "return_state": false, "implementation": 1, "kernel_regularizer": null, "trainable": true, "kernel_constraint": null, "recurrent_initializer": {"config": {"gain": 1.0, "seed": null}, "class_name": "Orthogonal"}}, "class_name": "LSTM"}, {"config": {"noise_shape": null, "name": "dropout_7", "trainable": true, "rate": 0.2, "seed": null}, "class_name": "Dropout"}, {"config": {"go_backwards": false, "unit_forget_bias": true, "name": "lstm_8", "recurrent_constraint": null, "recurrent_regularizer": null, "bias_regularizer": null, "stateful": false, "bias_initializer": {"config": {}, "class_name": "Zeros"}, "recurrent_activation": "hard_sigmoid", "activation": "tanh", "recurrent_dropout": 0.0, "dropout": 0.0, "units": 50, "return_sequences": false, "bias_constraint": null, "use_bias": true, "unroll": false, "activity_regularizer": null, "kernel_initializer": {"config": {"scale": 1.0, "distribution": "uniform", "seed": null, "mode": "fan_avg"}, "class_name": "VarianceScaling"}, "return_state": false, "implementation": 1, "kernel_regularizer": null, "trainable": true, "kernel_constraint": null, "recurrent_initializer": {"config": {"gain": 1.0, "seed": null}, "class_name": "Orthogonal"}}, "class_name": "LSTM"}, {"config": {"noise_shape": null, "name": "dropout_8", "trainable": true, "rate": 0.2, "seed": null}, "class_name": "Dropout"}, {"config": {"units": 1, "name": "dense_1", "kernel_constraint": null, "bias_regularizer": null, "bias_constraint": null, "use_bias": true, "bias_initializer": {"config": {}, "class_name": "Zeros"}, "activity_regularizer": null, "kernel_initializer": {"config": {"scale": 1.0, "distribution": "uniform", "seed": null, "mode": "fan_avg"}, "class_name": "VarianceScaling"}, "kernel_regularizer": null, "trainable": true, "activation": "linear"}, "class_name": "Dense"}]}, "class_name": "Sequential", "keras_version": "2.2.4", "backend": "tensorflow"}